…
>14</span><br><span class="line">15</span><br><span class="line">16</span><br><span class="line">17</span><br><span class="line">18</span><br><span class="line">19</span><br><span class="line">20</span><br><span class="line">21</span><br></pre></td><td class="code"><pre><span class="line">----------------------------------------------------------------</span><br><span class="line">        Layer (type)               Output Shape         Param #</span><br><span class="line">================================================================</span><br><span class="line">            Conv2d-1         [-1, 32, 28, 28]             320</span><br><span class="line">              ReLU-2         [-1, 32, 28, 28]               0</span><br><span class="line">         MaxPool2d-3         [-1, 32, 14, 14]               0</span><br><span class="line">            Conv2d-4         [-1, 64, 12, 12]          18,496</span><br><span class="line">              ReLU-5         [-1, 64, 12, 12]               0</span><br><span class="line">         MaxPool2d-6           [-1, 64, 6, 6]               0</span><br><span class="line">           Dropout-7                 [-1, 2304]               0</span><br><span class="line">            Linear-8                   [-1, 10]          23,050</span><br><span class="line">================================================================</span><br><span class="line">Total params: 41,866</span><br><span class="line">Trainable params: 41,866</span><br><span class="line">Non-trainable params: 0</span><br><span class="line">----------------------------------------------------------------</span><br><span class="line">Input size (MB): 0.01</sp
…
